w2v_model/weights.npz (npz, 644 bytes, 1 tensors)

arr_0 f8 [1, 50]
000000 d7 1c f5 64 2e a8 f2 bf f4 ad 43 ff 1a f8 e9 bf
       -1.1660598701144431 -0.8115363107330595
000010 06 3d d6 4e b2 7a f7 bf 51 34 e8 f6 b4 05 a8 bf
       -1.4674552039685422 -0.04691854013444952
000020 7d 07 e4 92 80 14 fe 3f 56 88 8f b6 9d 0f dd 3f
       1.880005430023146 0.45407812908354594
000030 cf e2 12 55 2f e0 fb 3f 35 6d bd 99 69 a2 f2 bf
       1.7422326396173735 -1.164651489779158
000040 68 27 60 0f a1 df bd 3f 6e a3 0b 72 4f ae f1 3f
       0.11669355988865748 1.105056233873451
000050 5a f0 88 8b c4 2c d5 3f b0 c5 3f b6 64 60 e4 3f
       0.3308574068685225 0.6367667731812414
000060 ed a1 09 bf bc 0c f3 bf 47 d3 2e af 68 73 bd 3f
       -1.190609689942103 0.11504225041319414
000070 39 f9 da 8f 74 93 02 c0 45 47 af 03 77 07 f0 3f
       -2.3219996679974 1.0018224853451596
000080 84 c7 ff 27 24 36 f5 3f 62 0f 17 30 12 34 d9 bf
       1.3257180750337918 -0.3938031644467995
000090 c6 cc 0a 3b e4 5a f1 bf d5 97 df f3 1b 2e e6 bf
       -1.0846903139434274 -0.6931285632278966
0000a0 78 c3 42 44 67 07 c2 3f 90 25 61 01 6c 47 ea bf
       0.14085093339010846 -0.8212184931700666
0000b0 0c 98 8b 69 ec 56 f0 3f 22 c7 73 81 ce 80 07 c0
       1.0212215540755123 -2.9378938783128357
0000c0 60 b0 af 2c 94 f3 f0 bf e6 5e bb 38 52 79 c2 bf
       -1.0594674821432122 -0.14432742853272557
0000d0 45 10 67 d4 39 60 dc bf 4d 4e 8a f9 16 47 e3 bf
       -0.44337316267433763 -0.6024279474099302
0000e0 67 c7 0c 00 1d b6 ea bf 36 0a e2 a9 73 f8 d8 bf
       -0.8347306252455667 -0.3901642951024401
0000f0 b8 30 65 29 a8 e9 f1 3f 76 cc d0 87 87 11 f3 3f
       1.1195451371195713 1.1917796426103258
000100 c1 1e 82 63 41 be b8 3f 6d 4a fd b0 e5 79 f6 3f
       0.0966530673923627 1.4047600663804147
000110 1d a8 97 c5 81 19 f1 bf 60 b8 fb 41 c1 00 bd bf
       -1.0687272757009005 -0.11329276905937169
000120 db c8 9b cb fa 6d e4 bf 6a b1 f0 85 1f 34 d5 3f
       -0.6384252526024982 0.3313063438424907
000130 8b fa 1b 74 21 74 e6 bf 88 0c 7d da d3 3f ff bf
       -0.7016761081466297 -1.9530828985887485
000140 03 fc be a6 9c 1f da 3f e1 3c c0 de 97 cb ee 3f
       0.4081794384364345 0.962352690754326
000150 61 dd 97 ac 8a ed fd bf 66 40 56 dc 40 e4 ef bf
       -1.8704935781405185 -0.9966129592376205
000160 c1 f9 08 ee ab e9 db bf 36 a7 de 77 67 fa b9 3f
       -0.4361371826707022 0.10147711445338534
000170 eb 16 e4 b6 de c5 f2 bf af 0e 7c e9 c6 97 f1 3f
       -1.173308100145216 1.0995549316875601
000180 39 f4 60 6a 10 35 d4 bf dc da 3a a0 ea 1e ca 3f
       -0.3157387770514251 0.20406849693036733
