Basic-NLP/w2v_model/weights.npz (npz, 800644 bytes, 1 tensors)

arr_0 f8 [2001, 50]
00000000: 7e8d 1c34 7281 dabf ad3f fd0c 5988 f4bf
00000010: 4f83 b3af 1a14 f9bf b1a0 a608 7bb2 e53f
00000020: 7d0c 39d5 b53d f13f 9ca8 aaf6 9cf0 ce3f
00000030: d818 7baa ba4a e3bf f64e 0ff1 02a7 a1bf
00000040: d049 eafb dba2 e1bf 1570 2c0c 31cb fbbf
00000050: ff3d 23df b391 c6bf 2171 ed2a 919a d6bf
00000060: 4e7e 5ba7 9f2f ed3f 10cf 3863 599d c63f
00000070: 20f1 e3ab fa41 9cbf 3b05 4c9c 9e97 e7bf
00000080: 5ea6 c7ee 20e3 b0bf 5717 6124 94cf e53f
00000090: 6ae5 9b12 b8ba c5bf fbdb 4c4b fdc5 c23f
000000a0: d4e2 8a1a ccf6 cfbf f5da f1d8 83ae d4bf
000000b0: f75c b07f 39f9 ea3f 3066 df6e 933d ed3f
000000c0: cf78 531a 253f ed3f 0c80 1067 fc46 f73f
000000d0: 4b6c 0a60 fa7e f13f d4e2 efb9 0cfb debf
000000e0: 5109 536b c521 ea3f 630b aa45 9cf2 d8bf
000000f0: bb39 097e 1ee3 f0bf f3d8 a35c 46f8 a3bf
00000100: 3f0a 50c0 6e09 e03f c107 8da7 f671 c43f
00000110: 0546 bde1 6228 d63f 8174 9477 3a07 e53f
00000120: cfb4 cc82 a40b e63f 9efe 81aa b0ef dfbf
00000130: a6c4 59fb fd92 ef3f cbd4 4e3e 1211 91bf
00000140: 8d78 2b81 885e db3f ec2f f55f 20ba c33f
00000150: 13f4 5441 415a d83f 5444 0e9f e52b e0bf
00000160: c5aa e65b 5451 d53f a106 9a4e 978b ce3f
00000170: 5303 d7e7 b099 f23f 3840 65ea f070 e03f
00000180: d07f 189f 7c18 94bf 3a73 8373 fb77 e23f
00000190: 4ee5 793d e321 fd3f 153e b954 47f7 d0bf
000001a0: c1e2 e525 9cd8 e3bf c69e b2b8 8da7 e4bf
000001b0: 760e d048 2f7f 0340 ede2 6e22 3afc ea3f
000001c0: f9b3 8b1f eb67 e13f 8639 3673 0d7d f6bf
000001d0: 3e2c 7c28 5761 f03f b30d 3500 b950 ecbf
000001e0: 6e82 d12b 65bc d43f 989c e418 8bd7 f73f
000001f0: b81b 4159 2b46 eb3f 6da4 8d1a fa88 e4bf
00000200: d0ad 8063 e5d3 ef3f 7b48 89e1 9898 e03f
00000210: a116 b8fb 0e53 a4bf caf9 7ae9 ffb3 933f
00000220: 5621 1202 5e95 cb3f 462c 5f59 93da f9bf
00000230: 9a2b 7464 62ef edbf 112d 37d7 dfd7 fc3f
00000240: efdf 9e16 f119 f4bf bdcf 7a37 969e bdbf
00000250: 76e3 c56d de88 0340 0049 d55c 073d d93f
00000260: 5ee9 c523 9ddc f8bf be62 ef01 dd7b f73f
00000270: 2256 5521 06a5 df3f 316b f4de e899 e93f
00000280: d1e5 d948 2d39 c93f 26af bb91 2dde ddbf
00000290: 8c24 622d 3ee9 01c0 a159 6daa c316 08c0
000002a0: 83c6 53f5 5b1d de3f c09e 1acf 3355 cbbf
000002b0: 375f ee34 8412 dcbf 60c1 0b69 6fac fe3f
000002c0: cda3 e444 50f0 fa3f d02d f098 1899 03c0
000002d0: b0db b624 560b f1bf 1f51 247e 13f4 fc3f
000002e0: 26db 5952 fde5 fb3f caad 042e 120d bd3f
000002f0: 2caa 9fa3 70d8 7bbf cf2b c446 bb35 e43f
00000300: 482e a278 95b2 e8bf 4531 27a0 91ce 00c0
00000310: 67c5 d6d4 fa8c f73f 8194 6e25 ea1c e43f
00000320: 65ee 1491 ede8 b7bf c4a7 40db 65bc cc3f
00000330: 12c2 3fc8 813b a83f a761 4db7 e5c6 ad3f
00000340: b6ec 5919 3e84 bf3f 9fda 1ee4 5e20 98bf
00000350: fac4 70a7 1b4c acbf 463e 90ef 6f27 d03f
00000360: 00df cd1d 67e5 98bf 5d8c b31f 02e9 a4bf
00000370: 2d30 1245 5f98 b73f c929 612c cbbe be3f
00000380: 0e98 93e0 dd94 c23f e45c 1180 7fd1 c23f
00000390: 000a 3e25 33f8 93bf 080d 94d0 7220 bfbf
000003a0: e063 e6ec adc5 bc3f 9876 ff01 b155 a03f
000003b0: 0c8f de30 2efb c0bf e8f6 ca5f 533e 4d3f
000003c0: f538 073c ee84 a83f d4da 4a39 ff4d c6bf
000003d0: 746c 5f2d d487 9abf 6579 68fd 5eb0 c73f
000003e0: 2388 5247 7bd3 b53f 96a3 0bad ac08 c63f
000003f0: 5fe6 c31c 6c87 b7bf 4853 866b cdfc a4bf
00000400: 9841 94f3 1232 c5bf cd47 1e7f d23d 703f
00000410: ac74 f6a9 a52e acbf d526 b6f6 6c9c 963f
00000420: ac4d 8f96 0a83 abbf a1f1 92e1 fb12 aa3f
00000430: 5011 8718 1638 c7bf 7065 526b adac c53f
00000440: bba6 4e10 2f4b a0bf c11b 186e 64fd 9c3f
00000450: 89db 934f 907c b73f f6a2 0fa2 12e0 c03f
00000460: 096c 0de9 60d1 84bf 9691 53e7 fe31 b23f
00000470: fae6 94f2 e231 ab3f 6cfa 7f48 1b94 c5bf
00000480: 4ecf ca78 1c66 bcbf 35c7 433f caa2 99bf
00000490: b381 5829 53fd bd3f 4bcd d320 f22a 923f
000004a0: d9ce 9411 4ffa d4bf a28a 5f52 aa27 b53f
000004b0: 3ff5 7196 0a78 dcbf cc6f 3a83 f20d d0bf
000004c0: 1106 18a4 7add d03f 5113 08c8 c1ca ec3f
000004d0: c8c3 d0d0 0e10 d2bf 26c5 6478 f523 c63f
000004e0: efeb b388 5f91 cebf 5514 b0ea 8a00 d3bf
000004f0: 7392 47ee cc75 f23f daa6 cfbb 690a afbf
00000500: 69c2 5900 16ce e63f f7b6 845f 3325 f4bf
00000510: 1869 03ee 13c7 ecbf e598 84d5 348e ddbf
00000520: e045 a79d e468 eb3f dba2 947e c901 e03f
00000530: df23 20cb 3ddb b3bf 2a56 93ed c0b7 febf
00000540: d3d6 b2c8 da2e f4bf 52d6 ea1c 75df c9bf
00000550: 86fb d346 3833 ed3f b08e d3cc f6fb ecbf
00000560: 665c 8960 a149 f2bf 617e c7f2 0c89 f13f
00000570: 88be 8724 293b e4bf f883 edb5 48a0 da3f
00000580: 1ce6 d3f3 afd2 353f 783d 1676 12a6 e43f
00000590: 043d decd 1297 e03f 2599 e755 164c eabf
000005a0: cb7f d0f7 1a9b db3f 209e fedd 190d ac3f
000005b0: 3f95 ae27 2a81 01c0 1fc0 c80c afad e63f
000005c0: 1fd5 c015 5c51 e13f 50a4 46d8 00d0 dbbf
000005d0: 63d0 5370 32cc cf3f 045b 2709 38bf e93f
000005e0: 70f8 2e7a 18d4 fbbf ba02 43f2 8e29 eb3f
000005f0: 3270 435b 5745 d13f d0ac 7c77 70a2 f53f
00000600: 1077 be03 b038 eb3f 9f0e 3130 54b2 be3f
00000610: d53f 0575 a1a5 e0bf 86fe 29ac 59d4 fc3f
00000620: b029 d085 a079 e23f 6925 8c70 3c15 d1bf
00000630: a454 81c2 ee8f febf 8541 fb37 06ca d4bf
00000640: 6548 9dfd b25c e3bf fb7a 8c69 876e dabf
00000650: cc13 f7bd f7db e8bf dacb 3137 e296 eb3f
00000660: c35c 0591 c882 c23f 2fef 7d5f ea43 bbbf
00000670: da9f a435 bdbd e7bf 3bab 7f31 9d5d dfbf
00000680: fad5 23c4 70c3 f3bf 3c98 361d 137a 91bf
00000690: 1317 c49b c79f c73f 4ee8 f141 f483 e1bf
000006a0: 3348 1609 ca4a cdbf b539 ff54 e31e ecbf
000006b0: 31f5 a623 2a0b cabf 83c8 c7cf 7558 a23f
000006c0: 6454 a6db 8d0f d83f 8f8d 8597 25d6 e03f
000006d0: 5772 67d2 f9cd e63f ea6f c139 611b fb3f
000006e0: 7971 2de6 3148 e93f 43d9 011b fed8 e4bf
000006f0: 3119 b4b3 a9cc c53f 5b25 3d2c 19a0 db3f
00000700: 0136 3679 40fe dabf 73c4 6d1d 4a6c c43f
00000710: f4b2 01c9 01b8 f1bf 107b 78fc 097f e53f
00000720: 4abb c4fd aa6b a73f 5866 552f 7726 a6bf
00000730: 0815 74c4 e054 d63f 7abf 9399 e719 f43f
00000740: 8d2a c709 1e7c e5bf 65da 8199 dd26 cd3f
00000750: 7005 8965 a69f cbbf cd04 b993 8e2d f0bf
00000760: 3819 a9da f080 c13f 95da f8f7 0d2d ad3f
00000770: abd3 14c7 ede8 e0bf b45c 500c 6243 d9bf
00000780: e808 fd94 b7d6 e43f 0e8c 71cf 62a7 bf3f
00000790: a86d f449 c71e df3f 8315 6243 e671 d33f
000007a0: e8af 4507 ecd3 b43f 78f5 96d4 8b73 c5bf
000007b0: 4bce 2459 db16 c93f a3e0 116b 0110 dc3f
000007c0: 587d 7698 1254 d63f 7496 0cc3 0ee0 e8bf
000007d0: d680 390f c279 fc3f 27f7 8d97 a8f0 b3bf
000007e0: 5f46 d688 46b6 e4bf 86b2 a01d 2e41 da3f
000007f0: 80b2 da86 157a e7bf 3393 1c47 8015 eebf
-0.4141507634069156 -1.2832880504028978 -1.5674082625702856 0.6780371827089963 1.0775659874932721 0.24171793026227284 -0.60287221238175 -0.03447732155441756
-0.5511302871912509 -1.7371073222666429 -0.1763214911975268 -0.3531840247358265 0.9120634335230962 0.17667691559619714 -0.02759544061790209 -0.7372582485842608
-0.065965708061094 0.6815891943485707 -0.16976071270600396 0.14666715790528415 -0.24971915527364408 -0.3231515520669029 0.8429229253696623 0.9137665906411652
0.9139581216984655 1.4548305536227444 1.093500495108645 -0.4840728584090759 0.8166224571398663 -0.3898077659907157 -1.0554490016253186 -0.039003561791035944
0.5011514431101388 0.15972788983532207 0.3462149815069043 0.6571323714776015 0.688921218364749 -0.49900452281142715 0.9866933736031072 -0.016666684201216236
0.42764484991301616 0.15411762891233083 0.3805087221151677 -0.5053585154111127 0.33308896040641073 0.23863498056384905 1.1625222259755972 0.5137867525136306
-0.01962465973895161 0.5771462684748265 1.8207733537113486 -0.2650926902178708 -0.6201916446871892 -0.6454533202531472 2.437101906632786 0.8432894394419158
0.5439353576781506 -1.4055304050885709 1.0237647611090916 -0.8848538402602827 0.32399873046055105 1.4901228878386856 0.8523155921219461 -0.641720821248908
0.9946162169848609 0.5186275868420717 -0.039696186282566666 0.019241331696997745 0.21549582577814402 -1.6158631793102969 -0.9354717218387691 1.8027037054878898
-1.2563334354035722 -0.1157010922859731 2.4418304992690834 0.39434989991890745 -1.553860797632829 1.4677400661077367 0.4944472623368218 0.8000377993188065
0.19705740029512112 -0.46668566924812394 -2.2388881249976915 -3.011115390264607 0.4705419441007523 -0.21353767025470027 -0.4386301533609073 1.9170984366756656
1.6836703005922005 -2.449753947095566 -1.065267699637598 1.8095889022270695 1.7436497895084329 0.11348069785588347 -0.006798210140895249 0.6315590269235772
-0.7717997890590107 -2.100863696285304 1.4719188989659757 0.6285296183674661 -0.09339794914279194 0.22449944692317392 0.04732900208898995 0.05815809118820719
0.12311161154677816 -0.023560984300014295 -0.05526815813971982 0.2524070586668795 -0.024312602228262925 -0.04084021222095011 0.09216876446061013 0.12009877999768216
0.14516805139209094 0.14701837304412557 -0.01950149454888539 -0.12158887474292979 0.11239134820642915 0.03190377377880543 -0.13266541849326818 0.0008924395657101377
0.04788918001905699 -0.1742552785633139 -0.025908770818074037 0.18506991742556092 0.08525820246953279 0.17213972520337667 -0.09191013052250117 -0.040991229415487995
-0.16559063809883123 0.003965208294077938 -0.05504338931789596 0.02208109145934752 -0.053734141234282745 0.050926085744751555 -0.1813991184009276 0.16933219662022791
-0.03182360719740759 0.02831036493264683 0.09174444144069417 0.1318381587327832 -0.01016498290271352 0.07107537410371942 0.053114978897111656 -0.16858235397372157
-0.11093309353856037 -0.025035057174086012 0.11714668044488157 0.017741950276968493 -0.32777764050409314 0.08263649474205662 -0.44482674304875397 -0.25085127654324135
0.2635180094222003 0.8997506052843197 -0.28223009483468475 0.17297237757296918 -0.2388114373678429 -0.2969081203339717 1.1537598903461486 -0.06062632005325748
0.7126569754455662 -1.2590821963489682 -0.8993014954278662 -0.46180458880770764 0.8565543250244296 0.500218150356058 -0.07756410798187073 -1.9198617248815801
-1.2614391174114885 -0.20213188087443484 0.9125024207458956 -0.9057573318973109 -1.1429761668166747 1.095959614140064 -0.6322217668038812 0.4160329605711577
0.000332992512838 0.6452724748977934 0.5184415837156 -0.821787994177417 0.4313418788969982 0.05478745303053878 -2.188068685546255 0.7087016343775793
0.541181604849644 -0.43457051392266965 0.24841909870849851 0.8045921496185149 -1.7392811558525203 0.8488230449366576 0.2698572531933251 1.3521580378972438
0.8506698678135951 0.11990858246377421 -0.5202185903126472 1.801843330875188 0.5773470510042014 -0.2669211482139731 -1.910139808450631 -0.32483058421078
-0.6050658181577658 -0.41299615199561374 -0.7768515310532336 0.8621684148805528 0.14461619454480087 -0.10650505858751268 -0.7419115112033936 -0.49008874734743174
-1.2352149640768162 -0.01706724038890449 0.184563590104681 -0.5473576820361445 -0.22884488528922162 -0.878770509729114 -0.20346571675137562 0.03583114777929188
0.3759493489281509 0.5261409720809967 0.7126435384230473 1.6941845184401196 0.7900628562597795 -0.6514883544430535 0.1703083159884016 0.4316466266651184
-0.4217683013638123 0.1595547336287698 -1.1074235774823906 0.671757691485114 0.04574331615218925 -0.043262218978907085 0.3489305418482478 1.2563243865115212
-0.6714010420776774 0.2277485847041191 -0.21580963094497063 -1.0111223001879808 0.13674746205124122 0.056984364051847404 -0.528433693724414 -0.39473773195772854
0.6512105855875037 0.1236478573278392 0.4862535688605143 0.3038268716848835 0.08135867288154908 -0.16758869057040804 0.1960100350639656 0.4384769006351325
0.3488813866515179 -0.7773507890276066 1.77972608515852 -0.07789090824186627 -0.6472504303548695 0.4102282800038569 -0.7336528428910043 -0.9401246441744661
